model/model.pth (torch, 16799 bytes, 4 tensors)

linear1.weight f4 [256, 11]
000000 e5 eb 18 bf 19 c9 06 3f 9c 8b af 3e 45 b4 b8 be
       -0.59734946 0.526506 0.342862 -0.36075035
000010 03 31 af 3e 9c 3b 22 3e 79 d5 85 3d 53 57 df be
       0.3421708 0.15843052 0.06534857 -0.4362131
000020 79 e8 b0 ba 56 9a 88 bd c5 34 36 bd 32 50 01 bf
       -0.0013497017 -0.06670062 -0.04448392 -0.50512993
000030 4c fe 0f bf 43 f5 d4 3e f4 4a 1c bd 4a a7 86 bc
       -0.562474 0.4159337 -0.03815742 -0.016437192
000040 b4 d4 42 be 4a 96 2c 3e 90 4a 05 be 6f 86 8f be
       -0.19026452 0.16854206 -0.13016725 -0.28032252
000050 0f 00 94 bc 90 e4 13 3e ca 1a b7 be 13 d3 b1 be
       -0.018066434 0.14442658 -0.35762626 -0.3473135
000060 f5 49 28 bf 59 22 d9 3d bc 38 a8 3e f6 80 0a bf
       -0.6573785 0.106022544 0.32855785 -0.5410303
000070 fc c7 9d 3c 75 25 d5 be 1d c9 b5 be 60 94 b3 3d
       0.019260399 -0.4163014 -0.35505 0.08768535
000080 a1 76 f1 3e 5f 2f cf be 80 1e 83 bc c9 f7 f2 3d
       0.4716082 -0.4046583 -0.016005754 0.118636675
000090 08 08 74 be c6 91 10 3e 15 fc b6 3d 83 37 4a be
       -0.23831189 0.14118108 0.089347996 -0.19747739
0000a0 71 c7 73 bd 8a 25 3d be 5a 9b 29 be 49 9d f0 be
       -0.059516374 -0.18471351 -0.16563168 -0.46995
0000b0 57 d8 d0 bc e0 7b cc 3d 7d b7 b3 bd d1 c2 bb 3e
       -0.025493784 0.09984565 -0.08775232 0.3667207
0000c0 b5 cf 92 3d e1 1c fc bd 5e 49 94 3e e3 b2 05 be
       0.07168523 -0.12310196 0.28962225 -0.13056521
0000d0 17 fe 01 bf 91 2f a1 3e c1 70 55 be 6e b0 fe 3e
       -0.50778335 0.31481603 -0.20843793 0.4974398
0000e0 6f 23 bd be ae 5e 91 be 83 7a 52 be c2 9c 80 3d
       -0.36941096 -0.28392547 -0.20554547 0.06279899
0000f0 7d 36 af be e1 3c 88 3e f4 3d 74 bd a6 97 fb bd
       -0.3422126 0.26608947 -0.059629396 -0.12284784
000100 dd 59 97 3e 3d 79 74 be 76 67 b5 3e 8c cc 21 bf
       0.29560748 -0.23874374 0.35430497 -0.6320274
000110 44 fa b9 3e 34 12 9c be f0 be d2 3d c8 77 2b 3e
       0.3632375 -0.30482638 0.10290325 0.16744912
000120 9e 8c e6 be a7 ff 51 be b5 68 60 3e 81 b9 2a be
       -0.45029157 -0.2050768 0.21914943 -0.16672327
000130 15 15 82 3e 71 af e2 3d 22 fe ae 3d 70 e7 6f 3e
       0.2540671 0.11068619 0.08544566 0.2342813
000140 99 44 68 3d bc 9c 95 3e a7 1c 44 bd 79 05 84 be
       0.056706045 0.2922114 -0.047878888 -0.25785425
000150 98 41 e0 3e 98 d4 b0 bd 4d e2 4e 3e 4f 83 b7 3e
       0.43800044 -0.08634299 0.20203514 0.35842368
000160 bb 57 b9 3e 74 8c ae 3d 7d 63 a2 3d ac c5 9c 3e
       0.36199746 0.08522883 0.07929132 0.30619562
000170 5c 8e b1 3e 18 fc a9 be 5f 35 58 be 45 5a 07 bf
       0.34678924 -0.33200145 -0.2111411 -0.52872115
000180 8e 56 04 bf 8b 1d 80 3e 56 e3 34 3e f4 c1 99 bd
       -0.5169457 0.2502254 0.17664847 -0.07507697
000190 bf ee bb be ab 6a 82 3e a7 0b 15 be 3a ea ab bd
       -0.36705586 0.25472006 -0.14555226 -0.083942845
0001a0 22 12 ca 3d dc 90 97 be 4d ab 9c be 9e ce 9d be
       0.0986674 -0.29602706 -0.30599442 -0.308217
0001b0 b4 4b 5e 3e 65 3f e5 be 88 11 01 3e 68 cd d3 3c
       0.21708566 -0.4477493 0.12604344 0.025854781
0001c0 11 df b5 3c a0 65 05 bf 5e 85 ea be b2 6d 92 3e
       0.022201093 -0.5210819 -0.45804876 0.28599316
0001d0 02 e5 14 bf 9e 5e 06 bf e8 3c 14 bf c6 2c bb 3e
       -0.5816194 -0.52488124 -0.57905436 0.36557597
0001e0 87 3f e1 be a3 6c 98 3e 1c bb ce 3d 0d 57 b9 3e
       -0.4399378 0.29770383 0.10094282 0.36199227
0001f0 f8 46 97 3d d4 58 6c be 80 62 6d be 72 39 94 3d
       0.07386583 -0.2308076 -0.23182106 0.07237519
000200 34 65 4a 3e 22 0b 58 3e 07 99 55 3e bd 6d 07 be
       0.19765168 0.21097997 0.20859157 -0.13225456
000210 92 0b 35 3e 99 a6 8f 3e 10 80 89 3e 38 96 5e 3d
       0.17680195 0.2805679 0.26855516 0.05434248
000220 42 7c 65 bd 89 bb c1 3c ba 87 23 3e fc 75 9c 3e
       -0.056026705 0.023648994 0.15969744 0.30558765
000230 b0 34 f0 3e b9 69 78 3e 40 fd 97 3e 13 da 82 be
       0.46915197 0.2425908 0.29685402 -0.25557002
000240 8e d3 2f 3d a6 44 5b be 7e 6c 21 be bb c7 8e be
       0.042926364 -0.21412906 -0.15764043 -0.27886757
000250 96 61 b8 3e e3 1f 10 be d3 2c e8 be d3 23 fe bd
       0.36011952 -0.14074664 -0.45346698 -0.12409177
000260 4a 7c db 3e ff f5 c5 bc 95 53 0b bf 95 ba ab 3e
       0.42868263 -0.024165152 -0.5442441 0.33540788
000270 b5 10 4e be ad 90 83 3e dc 88 bb 3e f8 bc 62 3d
       -0.2012356 0.25696316 0.36627853 0.055355996
000280 e8 09 09 be a3 0f 0d be 76 0b 9e be 80 ba 12 be
       -0.13382685 -0.13775496 -0.3086812 -0.14328957
000290 e0 e1 b4 3d 85 1c cf 3e c1 73 22 3e fc ab e9 be
       0.08832145 0.40451446 0.15864469 -0.45639026
0002a0 7b 04 7e 3d d0 f0 34 be 76 28 5a bc a2 93 c1 3c
       0.06201599 -0.17669988 -0.013315311 0.023629967
0002b0 18 33 71 be 8c ea 0a 3e b8 c4 94 39 57 81 19 3e
       -0.23554647 0.13566035 0.00028375327 0.14990745
0002c0 c7 be 30 3e bd 3a 02 3f 37 07 04 bf 54 bc ab be
       0.17260276 0.5087088 -0.5157351 -0.3354212
0002d0 ac 45 76 3e a1 23 25 be 5e 5f 26 3d 6b 59 b3 3e
       0.24050015 -0.16126873 0.040618293 0.35029158
0002e0 32 37 cd 3c fa b6 b4 3e a2 b1 c6 bc 98 a2 b2 3e
       0.025050733 0.3529585 -0.024254624 0.34889674
0002f0 ff ff 27 bd ce 4c 7f bd 4e 63 9c 3e 32 4b be 3d
       -0.04101562 -0.062329106 0.30544513 0.09291686
000300 d0 40 56 bd dd 89 54 be 51 c9 fb be 5a 36 0d bd
       -0.052307904 -0.20755716 -0.4917703 -0.03447566
000310 7f 53 89 3d 80 7d 7e 3e 51 fe a4 3e 10 ba 14 3f
       0.06705379 0.24852562 0.32225278 0.5809641
000320 b2 f3 a1 be 9e d7 e3 be 9e e2 32 bd 99 55 72 3d
       -0.31631237 -0.4450044 -0.04367315 0.059163664
000330 89 d1 c8 3c 60 61 f5 3e 68 c4 57 3e 3f 61 75 3e
       0.024513977 0.47925854 0.21071017 0.23962878
000340 16 d2 3e 3e 42 24 e8 3e 16 99 e3 3e 48 f7 b3 3e
       0.18634829 0.45340163 0.44452733 0.35149598
000350 36 61 9a 3d 75 4c 82 ba ba cc 1f 3e f5 a6 ce 3d
       0.07538073 -0.0009940999 0.1560544 0.10090438
000360 75 1e 11 3f 5c f0 ff 3e 3e 85 f4 3c 2e 8a 05 3e
       0.566871 0.49988067 0.029848691 0.13040993
000370 cd e6 a6 be 6d 69 1d 3f 29 39 8c be 51 a2 0f 3e
       -0.32597962 0.6148899 -0.2738736 0.14026763
000380 fc 67 b3 be 23 78 90 be 1d 5d 32 3e 89 9f 12 3e
       -0.3504027 -0.28216657 0.17418332 0.1431867
000390 a5 7a d1 be 14 49 ea bd 78 09 47 3e cf 56 14 be
       -0.40913883 -0.1143972 0.19437206 -0.1448624
0003a0 32 c3 db be e7 0e 04 bf a1 6e a6 bd 48 16 b7 3e
       -0.4292236 -0.5158524 -0.081265695 0.35759187
0003b0 c8 1b b5 bd fd 35 52 3d b7 2b 61 be 04 74 80 3e
       -0.088431895 0.05132102 -0.21989332 0.25088513
0003c0 11 72 5b 3d 73 d8 53 be ec 16 93 be 62 2f e2 be
       0.05357558 -0.20688038 -0.28728426 -0.44176775
0003d0 d8 ef 2f be d5 e7 5b 3e fb 06 61 3e ad 93 c1 3e
       -0.17181337 0.21475156 0.21975319 0.3780798
0003e0 da e3 99 be 59 76 00 3d 43 ba 66 3e e5 85 b1 3d
       -0.3005665 0.031362865 0.2253199 0.086681165
0003f0 61 f0 d3 be 47 a9 82 be 79 e1 0a 3f 4d c9 82 3e
       -0.41394332 -0.25519773 0.54250294 0.25544205

linear1.bias f4 [256]
000000 c8 a7 8d 3e 00 dd b2 3e 68 c5 0c 3e 58 4d 83 3e
       0.2766707 0.34934235 0.1374718 0.25644946
000010 60 c2 8d be f3 62 1a 3d 55 45 e1 3c 27 ea 90 be
       -0.2768736 0.03769202 0.02749888 -0.28303644
000020 39 42 b7 3b e6 97 05 3e 67 1c ba 3d 6b ca 3e bd
       0.005592611 0.13046226 0.090874486 -0.04657976
000030 93 74 a4 be 20 b2 bf be 07 ba fb 3e 09 76 44 3e
       -0.3212019 -0.37440586 0.49165365 0.19185652
000040 3f c8 85 be 9e 80 da bc 60 b0 24 be 48 00 1e be
       -0.26129338 -0.026672658 -0.16082907 -0.15429795
000050 e7 42 b9 3d bb 8d 88 be 24 82 28 3c d5 50 fe 3c
       0.09045964 -0.26670632 0.010284934 0.031044403
000060 28 d4 b2 3d 5e 3b 05 be bb d9 47 3e a7 f7 8a 3b
       0.08731872 -0.13010928 0.19516651 0.0042409482
000070 e0 3a 3e 3c d6 29 88 3e 9f 6d 30 bd a0 ef 34 bd
       0.011610717 0.26594418 -0.043073293 -0.044173837
000080 5c bd 6e 3e 85 97 9a 3d 3c 56 e3 be d1 90 fb bd
       0.23314422 0.07548431 -0.4440173 -0.12283481
000090 bf fe 88 be b2 e7 01 be d0 08 d6 bd c3 45 1a be
       -0.26756856 -0.12686041 -0.104508996 -0.15065674
0000a0 52 c5 53 3d 08 ca 8b 3e b6 3e 83 ba 65 09 53 3d
       0.05170185 0.27302575 -0.0010013196 0.05152263
0000b0 09 5c 35 bc 34 3a 52 3e 27 95 c0 3e 94 53 fc bd
       -0.011069306 0.20530015 0.37613794 -0.12320629
0000c0 9d a9 1f 3e 4e 1a 39 3e 00 4e b0 bd f7 49 86 3d
       0.15592046 0.1807644 -0.08608627 0.065570764
0000d0 ee fd 36 bd a6 9c 77 bd b4 17 f3 3c bf 2a 47 bc
       -0.04467576 -0.060452126 0.029674388 -0.012156188
0000e0 c5 8f c1 3d 13 98 81 bd a7 55 7e bd ae fc ea 3d
       0.0945125 -0.06327834 -0.062093403 0.11473976
0000f0 52 0d 41 3e 54 14 fc bd aa 06 ab 3d c8 e9 4a bc
       0.18852738 -0.12308565 0.083508804 -0.012384839
000100 02 b1 5b 3e c0 f7 2e 3e bf 8e c0 bd c6 32 74 3d
       0.21454242 0.17086697 -0.09402227 0.059618734
000110 21 30 e4 3d a6 1d 18 3e f4 2a a3 be 6e e2 e6 bd
       0.11141992 0.1485506 -0.31868708 -0.11273657
000120 07 2a b8 3d a6 0a 50 be 7c a5 b9 be a8 b1 0a be
       0.08992391 -0.20316562 -0.36259067 -0.13544333
000130 3e 99 51 3d 28 72 05 3d e6 59 28 3e cb a4 a0 bd
       0.051171534 0.03257957 0.16440544 -0.07843932
000140 8e a4 83 be 99 4d ed 3d f7 aa f3 3d 98 dd 3a bc
       -0.25711483 0.11587066 0.11897843 -0.011405371
000150 2b d5 7c bd 96 c2 d9 bd 4e 7f 38 3d 80 5e 10 3e
       -0.06172673 -0.106328174 0.045043282 0.14098549
000160 f0 88 0a bd a9 4a af 3d 09 2a c2 3d 6f 3a 87 be
       -0.033822 0.08559162 0.09480674 -0.2641177
000170 f0 0b 8b 3d 0c b3 d9 bb 26 c5 bf 3d a0 1c 9e be
       0.06789386 -0.0066436585 0.09363775 -0.30881214
000180 2c 68 7b be cd 55 28 be ba 9b 2c 3e 2d 28 84 bd
       -0.24551457 -0.1643898 0.1685628 -0.064529754
000190 c8 4f 77 be ff 7d de bc 51 75 22 be 81 c3 15 3e
       -0.24151528 -0.027159689 -0.15865065 0.1462536
0001a0 af 42 f9 bd 7e 0a c3 bd 9f 85 39 3e d8 7c d2 bd
       -0.12170922 -0.095234856 0.18117379 -0.10277718
0001b0 45 d1 04 3e 1e ad ae bd a5 c6 c3 bd 95 f3 8f be
       0.12970455 -0.08529113 -0.09559373 -0.28115526
0001c0 b6 fd d4 3d 76 c3 0e 3d d7 7c 69 3e f2 af ba 3c
       0.10399954 0.034854375 0.22801529 0.022788975
0001d0 6a b9 11 bd 50 76 9c 3d 29 c6 2d be 1b 4c 13 bd
       -0.035577215 0.07639754 -0.16970123 -0.03596125
0001e0 85 3e 15 be 91 9f 3e bd d7 ea 79 3e e1 45 09 3d
       -0.1457463 -0.046538893 0.2440599 0.033513907
0001f0 a1 30 6f bd 21 90 2a 3d 92 7e bd 3d 90 ce a9 bd
       -0.058395986 0.04164136 0.09252657 -0.08291352
000200 1a ef 33 bd ed f1 c1 bd 98 81 b7 bc a7 7e 06 3e
       -0.043929197 -0.09469972 -0.022400662 0.13134252
000210 2e 1a 0e 3e d5 f9 52 be ef 77 2b be 74 33 53 be
       0.13877174 -0.20603116 -0.1674497 -0.20625097
000220 33 43 b7 bd 2c 9f 3c 3e 2e 42 1a be 12 56 6c be
       -0.08948364 0.18420094 -0.15064308 -0.23079708
000230 be 26 8f 3d 19 1e 65 be 72 28 27 3d 83 df 86 be
       0.06989811 -0.22374763 0.040810056 -0.263424
000240 f1 9c 9d be 9f 81 59 3d 24 16 41 3c fd 4b a6 bb
       -0.307838 0.053102132 0.011785064 -0.0050749765
000250 f3 17 db 3d 72 d5 86 3e 33 78 52 3d 7b db ae bd
       0.10697927 0.2633472 0.051384162 -0.08537956
000260 e3 f8 83 bd 77 51 06 be d9 3c 47 be 6a ee 9e 3d
       -0.06443956 -0.13117014 -0.19456805 0.077603176
000270 68 d6 35 be 3c 7d 0b 3e 49 0f 81 3c e6 4d 93 3c
       -0.1775757 0.13621992 0.015754359 0.01798148
000280 ea 0c 51 be 11 3f a2 bd f9 b0 9f bd 35 43 91 bd
       -0.20415083 -0.07922185 -0.07797427 -0.07092897
000290 cc b3 65 be d0 41 10 be 60 eb 8d be 87 89 e9 bd
       -0.22431868 -0.14087605 -0.2771864 -0.114031844
0002a0 c9 8c 58 3e 34 93 c1 3d 48 2f cc bd 02 7f 7b 3e
       0.21147455 0.09451905 -0.09969956 0.24560168
0002b0 fc 74 5d bd 0c ce 38 bc 7c 48 38 be 82 75 d2 3c
       -0.054066643 -0.011279594 -0.179964 0.025690798
0002c0 81 8a 1b be 4e a3 7e 3e 13 c9 21 3e cb a6 44 be
       -0.15189554 0.24866983 0.1579936 -0.19204251
0002d0 ed af 23 3e 6d ee b0 bd ae c8 b9 3e 4e 31 40 3e
       0.15985079 -0.08639226 0.3628592 0.18768808
0002e0 21 de dc bd d5 0a 04 3e 5a 60 cb bd 41 f3 a0 be
       -0.10784555 0.12894757 -0.09930487 -0.31435588
0002f0 73 f6 cd 3e ec 9f 7f be fc 9a df bd 97 7e 7d be
       0.40227088 -0.24963349 -0.10918233 -0.24755321
000300 8b 2f 39 bd 77 5d ba 3c 7e ce 3d be d8 54 80 be
       -0.045211356 0.022749646 -0.18535802 -0.2506473
000310 d2 50 a5 3e 93 0b 81 3e e5 c9 5f 3e bf 00 55 be
       0.32288224 0.25204143 0.2185436 -0.20801066
000320 fc bf 6a 3d 0f 3f 8d be 25 f5 1c be e4 eb 81 3d
       0.057311997 -0.27587172 -0.1532789 0.06343821
000330 02 8e 7b bd 26 c8 d4 3d d8 9f 27 be ab 66 33 bd
       -0.061414726 0.10389738 -0.1636957 -0.043799084
000340 04 80 78 3d 85 d2 86 3d cc 05 bd 3d a9 ec 02 bc
       0.06066896 0.06583122 0.09229621 -0.0079909945
000350 c4 af 21 bd 30 f4 9e 3d cf 9f 48 3e 89 5c 20 3e
       -0.039474264 0.07761419 0.19592212 0.156603
000360 41 12 4f be 0c fe ae bd f0 37 3b bd f5 4d 64 3d
       -0.20221807 -0.08544549 -0.045707643 0.055738408
000370 ed 9b fa bc 19 fe 11 3b 0c 63 04 be e6 3f 1e bd
       -0.03059193 0.0022276698 -0.12928408 -0.038635157
000380 3d 79 64 be 31 32 0d bd 01 71 51 be ad 94 67 3e
       -0.22311874 -0.034471694 -0.20453264 0.22615309
000390 54 e2 f5 bd ec 81 da bd 1d 9f 98 bd 26 a1 59 be
       -0.12006059 -0.10669312 -0.074522234 -0.2125288
0003a0 b5 fd fd bd 27 99 55 3e f4 28 52 3e c6 94 84 be
       -0.124019064 0.20859204 0.20523435 -0.25894755
0003b0 ae 28 02 be 2b d7 b7 bd ff 7f 36 be 62 7a 39 3d
       -0.1271083 -0.08976587 -0.17822264 0.04528273
0003c0 fa ae 8e be 7d 49 4b 3e d1 82 b0 bd c2 e6 b8 bc
       -0.27867872 0.19852252 -0.08618701 -0.022570971
0003d0 a3 6d 2f b9 37 21 1c 3c 62 58 ad 3e 26 5d 58 3e
       -0.00016730143 0.009529403 0.33856493 0.21129283
0003e0 3a 19 0b 3e df f0 5b be c9 79 f3 bd ca 11 80 bd
       0.13583842 -0.21478604 -0.11888463 -0.06253393
0003f0 3f c1 e3 3d 80 d6 9b 3e c1 48 e7 bd 34 69 e4 bd
       0.11120843 0.30437088 -0.112931736 -0.111528784

linear2.weight f4 [3, 256]
000000 87 40 ce 3e ca 5b 71 3e 88 8f 42 3e d3 cf e1 3d
       0.40283605 0.23570171 0.19000065 0.110259674
000010 3f ee 64 be 9b 51 9e be 32 de 1e 3b df 92 25 be
       -0.22356509 -0.30921635 0.0024241325 -0.16169308
000020 17 ee 47 bf 99 0e 46 3e 05 25 cd 3e 45 ad ae bd
       -0.7809767 0.19341506 0.40067306 -0.08529142
000030 6f 90 26 be 76 0f 78 3e bd 38 84 3e f9 b7 ac 3c
       -0.16266035 0.24224648 0.25824538 0.021083819
000040 cf 62 cb be 59 47 90 be de de 88 be 68 1b 6d be
       -0.39723822 -0.28179434 -0.26732534 -0.23154986
000050 ac 60 83 3e 5a 82 55 3e 30 87 8c 3e 19 1e 91 3d
       0.25659692 0.20850506 0.2744689 0.07085819
000060 0f a6 89 be 0d 32 aa bd f8 9b 64 3e 8a a5 2d be
       -0.26884505 -0.08310328 0.22325122 -0.1695768
000070 dc b0 fe 3d be 88 4a 3e 8a a4 80 3e 89 d6 77 3e
       0.12436077 0.19778726 0.25125533 0.24202932
000080 5f 8e 08 3e 37 1b 9d 3e 63 63 47 bc dd 0b 2d be
       0.1333556 0.30684826 -0.012169692 -0.16899057
000090 a8 88 67 bc 68 dc 66 bd 5a 3e 0b be 7b 04 0f 3e
       -0.0141317025 -0.05636254 -0.13598004 0.13966553
0000a0 c6 bf 9b bd 55 56 3e 3d 97 63 95 3c 43 a2 99 3e
       -0.07604937 0.04646905 0.018235965 0.30006608
0000b0 80 23 f7 bc 2a d2 1a bd d4 f5 a0 3e 6b 9e 1b bd
       -0.030168295 -0.037798084 0.31437552 -0.037992876
0000c0 99 11 11 3e e0 6d aa 3e 56 38 21 3e 7f 0e 28 3d
       0.14166869 0.33286953 0.15744147 0.04102945
0000d0 9a 1d 07 3f 98 44 58 bd 2f f7 75 be 79 4d e3 be
       0.52779543 -0.05279979 -0.24020074 -0.44395044
0000e0 a8 80 e1 bd c8 94 82 bd 7d 63 7a 3d 1f db 70 bd
       -0.11010867 -0.06376034 0.061130036 -0.05880272
0000f0 2e 04 c5 3d 68 58 94 3e aa 9f 6c 3e 73 b3 57 be
       0.09619938 0.289737 0.23107782 -0.21064548
000100 40 9b 74 bc 97 1c 32 3e b9 a5 04 be 8c 8f f1 3a
       -0.014929593 0.17393719 -0.12953843 0.0018429621
000110 33 5f ae 3c c3 ad 88 3c 26 09 26 be 8c 7f 52 bd
       0.021285629 0.016684419 -0.16214427 -0.05139117
000120 7d 98 2c 3e 52 30 9b be 50 5e c5 be 5d 55 a8 bd
       0.16855045 -0.30310303 -0.38548517 -0.08219407
000130 fb 52 1c 3f 7c 69 98 be 07 16 92 3e 61 f1 73 3e
       0.6106412 -0.29767978 0.2853243 0.23822547
000140 aa 0f fa bd 18 71 a4 3e 8d fa 55 3e 22 34 31 3d
       -0.12210019 0.32117534 0.20896359 0.04326261
000150 18 02 0c bf 6c 50 47 bd 0c c6 e0 3b 0c 48 2a be
       -0.54690695 -0.04866068 0.0068595465 -0.16629046
000160 ab f2 8e 3b 33 c8 6b be 2c ec 2e be cf f6 1d be
       0.0043624244 -0.23025589 -0.1708228 -0.15426181
000170 28 7e 9e 3c 88 da 98 bd 05 6a 52 3e 14 b9 02 3c
       0.019347265 -0.074635565 0.20548256 0.007978696
000180 71 30 15 bc 13 55 1e be 03 6e 42 3e 87 83 de bc
       -0.009105788 -0.1546214 0.18987279 -0.027162326
000190 a5 ad 87 bc 63 fa 42 3e e9 b8 a0 bd fb d4 0f 3f
       -0.016562292 0.19040827 -0.07847769 0.5618436
0001a0 a1 19 83 3e 5c b5 17 bd 9e 18 80 bd 85 cf 68 3e
       0.2560549 -0.037038192 -0.06254695 0.22735412
0001b0 59 2e aa 3d 1d d7 96 be 82 1f 03 bf 16 57 69 3d
       0.08309621 -0.29460993 -0.5121995 0.056967817
0001c0 d0 8e c3 3e d2 c4 8f bd d3 8e 29 3e 78 d2 87 3e
       0.38194895 -0.07019962 0.1655839 0.26527762
0001d0 71 27 56 be 48 01 6a be 0e d2 8c 3e 6f a0 c1 be
       -0.20913483 -0.22852051 0.2750401 -0.37817714
0001e0 95 02 82 bd 73 1b 00 3e 42 a6 54 3e 6d c8 14 3e
       -0.06348149 0.12510471 0.20766547 0.14529581
0001f0 f6 39 4d bd e6 14 60 be 6b 4f 49 3e 62 de dd be
       -0.050104104 -0.21882972 0.19659202 -0.43333727
000200 27 d8 82 3e ee f2 42 be 7f bc 32 3e 65 f5 a0 3d
       0.25555536 -0.19037983 0.17454718 0.07859305
000210 31 c0 fd 3c dd f9 15 be 98 58 dc bd 27 fd c8 3c
       0.030975433 -0.14646097 -0.107590854 0.024534775
000220 ee 6e fd 3d 9b d8 f7 bd 9d 2c b0 bd 30 80 d8 bd
       0.12374674 -0.12101861 -0.08602259 -0.10571325
000230 a1 37 a9 3d 45 90 45 ba 8d 8a f8 3c 1b 50 94 be
       0.082625635 -0.00075364514 0.030339504 -0.28967366
000240 5a a7 e7 3b 79 57 19 be f6 e7 d3 bc 65 38 4c 3e
       0.0070695104 -0.14974774 -0.025867444 0.19943388
000250 9b 08 92 3e b5 8d c1 3e 16 d7 65 be 5c f6 94 3e
       0.2852219 0.37803426 -0.2244533 0.29094207
000260 03 b8 88 be de 66 94 bd 3c 2c 5b 3e a8 45 8a 3e
       -0.2670289 -0.07246183 0.21403593 0.27006269
000270 23 f4 97 3e f6 e3 8f bd 67 cd 91 be 48 73 1e 3e
       0.2967845 -0.07025902 -0.28477022 0.15473664
000280 16 9d be bd b2 14 9a 3e 51 a5 96 bc 7c 3d 29 3e
       -0.093073055 0.30093914 -0.018389376 0.1652736
000290 54 be d2 bd 7f aa 83 bd be e9 72 be f8 a6 4f bb
       -0.102902085 -0.06429004 -0.23721978 -0.0031685214
0002a0 af 85 0c 3e 8a 80 d4 be 2d 18 8a bd fd 61 88 3e
       0.13722871 -0.41504318 -0.067428924 0.2663726
0002b0 d8 9b 25 3c 28 0b 1d bf 35 c2 b1 be 3f f7 e4 bd
       0.010107957 -0.6134515 -0.3471848 -0.11179971
0002c0 7c c3 40 3e 10 34 5f 3e d5 02 cd be 3c e8 8a bb
       0.18824571 0.21797204 -0.40041223 -0.0042391103
0002d0 85 df 95 3e ca 16 85 3e a4 36 5a 3e b7 74 a5 3d
       0.29272094 0.2599395 0.21309906 0.08078902
0002e0 8a 13 68 be f3 ad de 3d 5e 58 1f bf 53 d0 06 bd
       -0.22663704 0.10873022 -0.6224421 -0.032913517
0002f0 84 4c 17 3f 49 66 c7 be 80 68 0a be 49 af 44 be
       0.5910113 -0.38945225 -0.13516426 -0.19207491
000300 03 e0 7a 3e 07 02 94 3b 7e ea 87 3e 60 84 39 3d
       0.24499516 0.0045168432 0.2654609 0.04529226
000310 c4 e7 fa 3e 55 04 61 3e 47 2e 01 be 56 2e 27 bd
       0.49004948 0.21974309 -0.1261531 -0.040815674
000320 18 b5 75 be d7 5f f6 bc 4d c3 99 3e 3e 2d fd be
       -0.23994863 -0.030074997 0.30031815 -0.4944858
000330 a5 aa 42 3d 85 90 d3 3d 6f 3c b7 be 79 ed 34 bd
       0.04752602 0.10330299 -0.35788295 -0.044171784
000340 f0 b2 66 bd da 97 a0 3e 41 d6 b2 bd 9a d6 a1 3e
       -0.05632299 0.31365854 -0.08732272 0.3160904
000350 88 bf 8a bd be 2c a5 3e 3d f3 3a 3e b1 07 c0 3e
       -0.06774813 0.32260698 0.1825685 0.37505868
000360 26 ee 2a bd 86 80 c5 3d 7b b7 83 be d9 db 71 3e
       -0.041731022 0.096436545 -0.25725922 0.23619021
000370 3d 70 16 bd 55 04 f0 bd 11 1a 81 be 97 5e 66 3c
       -0.036728133 -0.11719576 -0.252152 0.014060638
000380 13 75 48 bb 54 93 d5 3e f8 af 84 be 2d 03 88 3e
       -0.003058736 0.41713965 -0.25915504 0.26564923
000390 01 f9 f9 bd 2a b5 93 be 49 4a a1 be 9a fb 9b 3e
       -0.12205697 -0.28849155 -0.31501988 0.30465394
0003a0 e3 22 14 bd dd 9a b2 3d 0b cb 82 3e 12 ad 07 be
       -0.036166083 0.08720944 0.25545534 -0.13249615
0003b0 87 63 09 bf d2 b6 c0 be 2b b4 54 be 31 62 bb 3d
       -0.5366749 -0.3763948 -0.20771854 0.09149588
0003c0 58 cd 9b 3c d2 e5 69 be 3e 0d 44 bd f8 71 f5 be
       0.019018814 -0.22841576 -0.04786419 -0.47938514
0003d0 f6 4d e3 be 74 0a ba be 4f 4e 98 3e 1c 79 9e 3e
       -0.44395417 -0.363361 0.29747245 0.30951774
0003e0 d8 06 71 3e c8 c8 e2 be 00 03 6f be 10 d6 22 ba
       0.23537767 -0.4429381 -0.23340988 -0.00062117074
0003f0 6d 10 fd 3d 5f 38 a2 3e 28 89 4c 3e cc 8a b1 be
       0.123566486 0.31683633 0.19974196 -0.34676206

linear2.bias f4 [3]
000000 52 24 7e 3d 06 3f 9c bb 87 e7 c4 bd
       0.062046356 -0.004768255 -0.09614473
